B交付给C/ppo_policy.pth (torch, 176949 bytes, 33 tensors)

shared.0.weight f4 [64, 4]
0	0x3ec44615	0.38334718
1	0x3ed5e4ee	0.41776222
2	0xbdd7f8cc	-0.10545501
3	0x3eea95d0	0.45817423
4	0xbddbed6d	-0.10738645
5	0x3d9d4870	0.07679832
6	0xbe7964a4	-0.24354798
7	0x3e9beeb5	0.30455557
8	0x3ef31dc2	0.4748364
9	0xbee7f4b1	-0.45303872
10	0x3ee36398	0.44411922
11	0x3e0f730c	0.1400873
12	0x3eb16c5c	0.34652984
13	0x3d70c2f2	0.058779664
14	0x3e5a2a34	0.21305162
15	0xbdea3169	-0.114352055
16	0x3eb2c72d	0.34917584
17	0x3deee133	0.11664047
18	0xbe73106e	-0.23736736
19	0x3dab3d2e	0.083612785
20	0xbe2e4859	-0.17019786
21	0xbdb53896	-0.088486835
22	0xbe38cb3c	-0.18046278
23	0x3ebff092	0.37488228
24	0xbed4b0a8	-0.41541028
25	0xbe575d21	-0.2103162
26	0xbe2f40b3	-0.17114525
27	0xbead72a4	-0.33876526
28	0x3d7b0ef5	0.06129356
29	0xbefeafbe	-0.49743456
30	0x3eddc6b2	0.43315655
31	0xbed81f7e	-0.42211527
32	0x3ed482e6	0.41506118
33	0x3da051e2	0.07828118
34	0xbe1adf51	-0.15124251
35	0x3ea5384b	0.3226951
36	0x3d69153a	0.05690501
37	0x3ee0d99a	0.43916017
38	0x3d72e435	0.059299666
39	0xbe3c4d1a	-0.18388787
40	0x3e329320	0.17438936
41	0xbe630d7e	-0.22173116
42	0x3e518821	0.20462085
43	0x3ef1b1bc	0.47205913
44	0x3ea90cb7	0.33017513
45	0xbe85b257	-0.26112625
46	0x3e879f62	0.26488787
47	0x3dd2326c	0.102635235
48	0x3e7eec16	0.24894747
49	0xbea90aa0	-0.3301592
50	0xbf000545	-0.5000804
51	0xbe410761	-0.18850471
52	0xbed5cf97	-0.4175994
53	0x3ee8f922	0.45502573
54	0x3e189e12	0.14904049
55	0x3e411ff2	0.18859842
56	0x3e02e866	0.12783965
57	0x3b9d26a8	0.004795868
58	0x3eb9b608	0.3627169
59	0xbec8a0dd	-0.3918523
60	0x3cc362b3	0.023850774
61	0xbeb7244e	-0.35769886
62	0x3e0e13ee	0.1387479
63	0xbe2dc9b3	-0.16971473
64	0x3e2ef286	0.17084703
65	0xbdb98222	-0.09058024
66	0x3ed7c58e	0.4214291
67	0xbe9718a3	-0.29510984
68	0xbe88a246	-0.26686305
69	0xbec9e316	-0.39431065
70	0x3ee5b094	0.4486128
71	0x3e552943	0.20816521
72	0x3f02b22a	0.51053107
73	0xbedc3667	-0.43010256
74	0xbefbe787	-0.4920008
75	0xbebbbf88	-0.36669564
76	0xbea02fa8	-0.3128636
77	0x3e5c5efe	0.21520612
78	0x3e3b8fc7	0.18316565
79	0x3ecf2c30	0.404634
80	0xbe65bc64	-0.22435147
81	0xbe967820	-0.29388523
82	0x3e937da3	0.2880679
83	0xbe1d4afa	-0.15360633
84	0x3e968653	0.29399356
85	0xbdc3a027	-0.09552031
86	0x3e871cc9	0.2638915
87	0xbecc0a2e	-0.39851516
88	0xbe89d310	-0.2691884
89	0x3e5c59ca	0.21518627
90	0x3de64635	0.1124386
91	0xbe182f1f	-0.14861725
92	0x3e848ad1	0.2588716
93	0x3eb4befb	0.35301957
94	0xbeb6fd25	-0.3574001
95	0xbe906f21	-0.28209785
96	0x3ed45bba	0.41476232
97	0xbdf26b58	-0.118368804
98	0xbe47f682	-0.19527629
99	0xbf0a9c11	-0.5414439
100	0xbea83581	-0.3285332
101	0x3e2d8b88	0.16947758
102	0xbd58f27e	-0.052965634
103	0xbecc40fb	-0.39893326
104	0xbc9508f0	-0.018192738
105	0xbe977642	-0.2958241
106	0xbedf23e1	-0.4358206
107	0xbea9fd16	-0.33200902
108	0xbedbe16d	-0.42945424
109	0xbea12771	-0.31475404
110	0x3ef6587f	0.48114392
111	0x3db1312a	0.086519554
112	0x3e25da57	0.16196571
113	0xbf01e575	-0.5074075
114	0xbead035a	-0.3379162
115	0xbe1f37e9	-0.15548672
116	0x3dcca6e7	0.099927716
117	0xbef7c51f	-0.4839258
118	0xbe628f06	-0.22124872
119	0xbe8a78ed	-0.27045384
120	0xbcaf3a35	-0.02139006
121	0xbe32c6f4	-0.17458707
122	0xbd37806b	-0.044800203
123	0xbeb3a790	-0.35088778
124	0xbea9cc44	-0.33163655
125	0xbea4784e	-0.32123035
126	0xbe385f61	-0.18005134
127	0xbec3ade9	-0.3821862
128	0x3ee7a9d8	0.45246768
129	0xbe016807	-0.1263734
130	0x3ed0b2c3	0.40761384
131	0x3e235e4b	0.15953939
132	0xbef5563b	-0.4791735
133	0x3ed0094b	0.4063209
134	0xbe1b03ff	-0.15138243
135	0xbe7e74b7	-0.2484921
136	0xbec8866a	-0.3916505
137	0xbf0f3eed	-0.5595539
138	0x3e0780f4	0.13232785
139	0xbda769e9	-0.08174498
140	0x3e6938a4	0.22775513
141	0xbecf44ab	-0.40482077
142	0x3ebfe769	0.3748124
143	0xbeabba3b	-0.3354052
144	0xbcf5cb22	-0.030004088
145	0x3d4a0ef1	0.049330655
146	0x3e82ef10	0.25573015
147	0x3ee530d1	0.44763806
148	0x3ee9bf43	0.45653734
149	0xbed2a15b	-0.4113873
150	0x3df6fd7b	0.12060066
151	0xbe42ee60	-0.19036245
152	0xbcdf211b	-0.027237466
153	0xbecdd76f	-0.40203425
154	0x3edadbbd	0.42745772
155	0xbeb935a2	-0.3617373
156	0x3e538524	0.20656258
157	0x3e62a233	0.22132187
158	0x3e1bfcad	0.15233107
159	0xbea6127d	-0.3243598
160	0x3ed59ee5	0.4172279
161	0x3e183d95	0.14867242
162	0x3d72149d	0.05910169
163	0xbef24b1d	-0.47322932
164	0x3e83704b	0.2567161
165	0xbda604eb	-0.08106407
166	0xbe5a585d	-0.2132277
167	0x3ef3f33a	0.47646505
168	0x3e11bb23	0.14231543
169	0xbea92d8f	-0.3304257
170	0xbe805507	-0.2506487
171	0x3c41269e	0.011788992
172	0x3e89430f	0.26808974
173	0xbdd73d8a	-0.105097845
174	0xbe973c5a	-0.29538232
175	0xbe4935d1	-0.19649436
176	0xbed59708	-0.4171679
177	0x3e71dccc	0.23619384
178	0x3ebfd582	0.3746758
179	0xbf04fb7f	-0.5194625
180	0x3d9689bb	0.07350489
181	0x3ea44e41	0.32090953
182	0x3dcfd838	0.10148662
183	0xbe4733a8	-0.19453299
184	0x3e4d88bc	0.20071691
185	0x3eadd5f4	0.33952296
186	0x3e2b0faf	0.16705202
187	0xbe1f652e	-0.1556594
188	0xbe2af8d4	-0.16696483
189	0x3de35e83	0.11102011
190	0xbdc8396e	-0.09776579
191	0xbe541e3b	-0.20714657
192	0x3e8ebc82	0.27878195
193	0x3f05709c	0.52124953
194	0xbd8af112	-0.06784262
195	0xbe24fd29	-0.16112198
196	0x3d1c316a	0.038133062
197	0xbd97c501	-0.074106224
198	0x3ddea0cc	0.10870513
199	0x3e206956	0.15665182
200	0xbec7f762	-0.39055926
201	0xbe7108dc	-0.23538536
202	0x3ee78227	0.45216486
203	0x3e884531	0.2661529
204	0xbd42d347	-0.04756477
205	0xbe9d8255	-0.30763498
206	0xbe9d897f	-0.30768964
207	0xbee5aa74	-0.44856608
208	0xbe2ab394	-0.16670066
209	0x3e21bdf0	0.15795112
210	0x3ea25209	0.31703213
211	0x3e75e405	0.24012764
212	0xbece1b81	-0.4025536
213	0xbec439bc	-0.38325298
214	0xbdb4ca38	-0.08827633
215	0x3f04ba68	0.51846933
216	0x3da5dce2	0.08098771
217	0xbe21940d	-0.15779133
218	0x3e4bf98f	0.19919418
219	0xbe3a9fec	-0.18225068
220	0xbea67e8b	-0.3251842
221	0x3ebb4fb9	0.3658426
222	0xbe586f11	-0.21136118
223	0xbdace739	-0.0844254
224	0xbef9f44e	-0.48819202
225	0x3ea0f74a	0.31438667
226	0x3ebc62ab	0.36794028
227	0x3e4b75ea	0.198692
228	0xbe9e28b4	-0.3089043
229	0xbf0f2cc1	-0.55927664
230	0xbecaacd3	-0.3958498
231	0x3ed96b02	0.42464453
232	0x3e6d063e	0.23146912
233	0x3edcf2b0	0.43153906
234	0x3e81147e	0.25210947
235	0x3dc413f9	0.09574122
236	0x3c69c4ec	0.014268141
237	0xbecce4d2	-0.40018326
238	0xbecdb03e	-0.40173525
239	0xbed923d6	-0.42410153
240	0x3e442868	0.19156039
241	0xbe47c278	-0.19507778
242	0xbdbb69eb	-0.091510616
243	0xbe9a7066	-0.30163878
244	0xbd8c21a0	-0.06842351
245	0xbec8c27a	-0.39210874
246	0xbeab21b1	-0.33424142
247	0x3e3d3201	0.18476106
248	0xbe384a2e	-0.17997047
249	0x3ec7788a	0.38959152
250	0xbe1c7a7c	-0.15281099
251	0xbec8adb2	-0.3919502
252	0xbe0a055a	-0.13478604
253	0xbe419d3f	-0.18907641
254	0xbe2e43fe	-0.17018124
255	0xbf0a2ea8	-0.5397744

shared.0.bias f4 [64]
0	0x3e914a43	0.2837697
1	0xbeb4a4d7	-0.35282013
2	0x3e7d93c3	0.24763398
3	0x3e483c12	0.19554165
4	0x3eae3f0d	0.3403248
5	0xbeb412c6	-0.35170573
6	0x3eab0961	0.33405593
7	0xbe669f75	-0.22521766
8	0x3e4c3e6c	0.19945687
9	0x3eeb4ac0	0.45955467
10	0xbd960bad	-0.07326446
11	0xbbb9be33	-0.0056684255
12	0xbe024da9	-0.12724937
13	0xbed04d6a	-0.40684062
14	0x3e5ea794	0.21743613
15	0xbf01ec4e	-0.507512
16	0x3ea5eedd	0.324088
17	0x3ebb1710	0.36541033
18	0x3ef3ffb1	0.47656015
19	0xbdccdca1	-0.10003019
20	0xbeb7a7db	-0.3587025
21	0x3ddcc8d0	0.107804894
22	0x3e8f5a4a	0.27998573
23	0xbf0480aa	-0.51758826
24	0xbe090b7a	-0.13383284
25	0xbe982958	-0.29719043
26	0xbd82f721	-0.06394792
27	0xbe7eb69b	-0.24874346
28	0xbe535772	-0.20638826
29	0xbe16351e	-0.146687
30	0xbef989f9	-0.48738077
31	0x3ecf02ad	0.4043173
32	0x3ed0a398	0.40749812
33	0xbdc74424	-0.09729794
34	0xbd72a6b8	-0.059241027
35	0xbe354f2e	-0.17705986
36	0xbed7e5de	-0.42167562
37	0xbef7cda6	-0.48399085
38	0x3e3f0212	0.18653134
39	0xbe95eb4d	-0.29281083
40	0xbeab16d7	-0.33415863
41	0xbc00e65c	-0.007867422
42	0xbe19d1a0	-0.15021372
43	0xbe31623b	-0.17322628
44	0x3bb3045f	0.0054631676
45	0xbdd6534c	-0.10465106
46	0xbe4d5c3d	-0.20054717
47	0xbe8013d2	-0.25015122
48	0xbecd8a9a	-0.40144807
49	0x3ed3e010	0.41381884
50	0xbe204841	-0.15652563
51	0x3df99a12	0.1218759
52	0xbe3321e8	-0.17493403
53	0x3d1b175e	0.03786408
54	0x3eeb3d33	0.4594513
55	0x3e788067	0.24267732
56	0xbed8cc0a	-0.4234317
57	0x3e54651d	0.20741697
58	0x3eea2c87	0.45737097
59	0x3e244431	0.16041638
60	0x3eaea80e	0.3411259
61	0x3ef9be57	0.4877803
62	0xbd871eab	-0.06597646
63	0x3da2b589	0.07944781

shared.2.weight f4 [64, 64]
0	0xbd8d7182	-0.069064155
1	0xbd2b9211	-0.041887347
2	0x3e05c8ed	0.13064928
3	0x3da5c4b1	0.080941565
4	0xbd72f461	-0.05931509
5	0xbde0a86c	-0.10969624
6	0xbdd1e8e2	-0.10249497
7	0xbe0163a3	-0.12635665
8	0xbd955e30	-0.072933555
9	0xbcd83f01	-0.02639723
10	0x3e20a3cf	0.15687488
11	0x3d94c38a	0.072638586
12	0xbdb3756b	-0.0876263
13	0xbe0421bc	-0.12903494
14	0x3d8e6f40	0.06954813
15	0xbdd5183e	-0.104050145
16	0x3b118aeb	0.0022208046
17	0x3dc36ffe	0.09542845
18	0xbd14e911	-0.036355082
19	0xbcaf8a95	-0.021428386
20	0xbcc9fbc6	-0.024656188
21	0xbcc478e3	-0.023983425
22	0xbd9b26a2	-0.07575728
23	0xbe136b28	-0.14396346
24	0xbdd2b54e	-0.102884874
25	0xbdc6f80d	-0.09715281
26	0x3deef4dc	0.11667797
27	0xbd87b845	-0.066269435
28	0xbda0829b	-0.07837411
29	0x3d020c8a	0.03175024
30	0x3c896a19	0.016774224
31	0x3d936075	0.07196132
32	0x3df97e56	0.121823
33	0x3ca19de1	0.019728603
34	0xbe01ab34	-0.12662965
35	0x3c932723	0.017962998
36	0x3d90c7ff	0.07069396
37	0xbc1bc445	-0.0095072435
38	0xbd480818	-0.048835844
39	0x3da2777a	0.079329446
40	0xbd8b8609	-0.068126746
41	0xbca5ccdb	-0.020239284
42	0xbdd2ee2f	-0.10299336
43	0x3b9fb266	0.0048735617
44	0x3bdbff50	0.006713785
45	0xbd2e48dd	-0.042549957
46	0xbd29359b	-0.041310888
47	0xbe000d11	-0.12504984
48	0xbe2a8b72	-0.16654757
49	0x3cd07170	0.025444716
50	0x3df385bd	0.11890743
51	0x3d891182	0.066927925
52	0xbdab01c9	-0.0834995
53	0x3c79504d	0.015216899
54	0xbd936164	-0.0719631
55	0xbdc1756f	-0.09446227
56	0xba1dd10c	-0.0006020225
57	0x3df8794e	0.12132512
58	0x3dedebcc	0.1161724
59	0xbde0af47	-0.109709315
60	0x3dcbb8b2	0.09947337
61	0xbd54c8b6	-0.051949225
62	0xbc961be0	-0.018323839
63	0x3d9fae70	0.07796943
64	0xbc463e6d	-0.012099844
65	0x3dfc28d9	0.123124786
66	0xbdca79d9	-0.09886522
67	0xbd70cc4e	-0.05878859
68	0x3d78a099	0.060700033
69	0xbc5a339a	-0.013317967
70	0xbd24cdd1	-0.040235344
71	0xbd029052	-0.031875916
72	0x3d9eb9b6	0.07750265
73	0x3d37ff41	0.044921163
74	0x3d8e1f2a	0.06939538
75	0xbd4039c8	-0.046930104
76	0xbdb0fb22	-0.0864165
77	0x3c4aecd4	0.012385566
78	0x3cce3424	0.025171347
79	0xbd2e12bf	-0.042498346
80	0xbd2f6746	-0.0428231
81	0x3db0dc8b	0.08635815
82	0x3bd1936e	0.006395749
83	0x3bd9cc0a	0.006646638
84	0xbc7170fa	-0.014736408
85	0xbdf3bcd8	-0.119012535
86	0xbe0b7d7b	-0.13622086
87	0xbd6fe95d	-0.058572162
88	0xbd72fafa	-0.05932138
89	0x3d2ad17b	0.041703682
90	0xbcbbe30e	-0.022935417
91	0xbcf66fdf	-0.030082641
92	0x3e0b88d5	0.13626416
93	0x3d7803bc	0.060550436
94	0x3dcf3ba8	0.101188004
95	0xbd926aca	-0.07149275
96	0xbd6796c3	-0.056540262
97	0x3cefd1d9	0.029274868
98	0xbd8132d8	-0.06308526
99	0xbd6d4cd5	-0.0579346
100	0x3c1915d0	0.009343579
101	0xbce9e1f8	-0.028550133
102	0xbdb0b8e0	-0.08629012
103	0x3d9d1605	0.076702155
104	0x3dd87ce5	0.10570697
105	0x3cfc4541	0.030794742
106	0xbb76e62c	-0.0037673814
107	0xbdd41488	-0.103554785
108	0xbd6ce697	-0.057837095
109	0x3bac5ff7	0.0052604633
110	0x3cff5d19	0.031172322
111	0xbc2e9ac2	-0.010657014
112	0xbd7146c1	-0.058905367
113	0x3d795653	0.06087334
114	0xbda45ed5	-0.080259
115	0x3db5d34c	0.08878192
116	0xbd3a2350	-0.045443833
117	0x3ccb0664	0.02478332
118	0xbd0a6727	-0.03378978
119	0xbc4cd40b	-0.012501727
120	0xbd081ad0	-0.033228695
121	0x3df29855	0.11845461
122	0xbc8b9578	-0.017039046
123	0x3de2805f	0.11059641
124	0x3de9f68e	0.1142398
125	0xbd82daca	-0.06389387
126	0xbdeb5e72	-0.114926234
127	0x3ddc0774	0.10743609
128	0x3e01107b	0.12603943
129	0xbdf5d891	-0.120041974
130	0x3c1bffaa	0.009521404
131	0xbdc3e63d	-0.09565399
132	0xbd98322e	-0.07431446
133	0xbb2a3f5b	-0.0025977704
134	0x3d6e7de8	0.058225542
135	0xb9d9bbf0	-0.0004152949
136	0xbbfb4093	-0.00766761
137	0x3e12ce4c	0.14336509
138	0x3c40229a	0.011727
139	0xbd9d9cad	-0.07695899
140	0xbd0d4e73	-0.034498643
141	0x3c072a54	0.008249838
142	0x3d865bfa	0.06560512
143	0xbdefa599	-0.11701507
144	0x3d8ebeb5	0.06969968
145	0xbd2e6682	-0.042578228
146	0xbda89f65	-0.08233527
147	0xbd7b79f5	-0.061395604
148	0x3dbd8841	0.09254504
149	0x3ded52ca	0.115880564
150	0x3e1007ea	0.14065519
151	0x3d4b5b0c	0.049647376
152	0x3d90b3de	0.07065557
153	0xbd2c9171	-0.04213089
154	0xbdc63d13	-0.09679618
155	0x3d1cb8d8	0.03826222
156	0xbdbf57a7	-0.0934289
157	0xbde8fa11	-0.113758214
158	0xbd8c36a8	-0.06846362
159	0x3d4708ac	0.048592255
160	0x3db8f1aa	0.09030469
161	0xbd5f8c42	-0.05457712
162	0xbdcdba94	-0.100453526
163	0xbc39b047	-0.011333532
164	0xbdcc5d4a	-0.09978731
165	0xbde05313	-0.10953345
166	0x3d74cb01	0.059763912
167	0xbd2dc2dc	-0.04242216
168	0x3dbb681b	0.09150716
169	0x3dfc9699	0.12333412
170	0x3c095a22	0.008383306
171	0x3c84137c	0.016122572
172	0x3d097fbf	0.033569094
173	0x3c5e2440	0.013558447
174	0xbaed7c77	-0.0018118758
175	0xbcc77544	-0.024347909
176	0x3cfd44b9	0.030916559
177	0x3e134412	0.14381436
178	0xbd630b72	-0.055430837
179	0xbd9fe6e4	-0.07807711
180	0xbd44559a	-0.0479332
181	0xbd9c84a7	-0.07642489
182	0x3d43f8d7	0.047844734
183	0x3df8702a	0.121307686
184	0x3d94e05c	0.07269356
185	0x3d2535b4	0.04033442
186	0xbd81e0d5	-0.063417114
187	0xbdc03256	-0.09384601
188	0xbb6de40f	-0.0036299264
189	0x3b2dd9ce	0.0026527527
190	0x3c082177	0.00830876
191	0xbe0dafd4	-0.13836604
192	0x3cbdcafc	0.02316808
193	0xbd9fe286	-0.07806878
194	0xbe06e16a	-0.13171926
195	0xbdfd0bbe	-0.12355755
196	0x3db518c4	0.08842614
197	0xbde05fea	-0.10955794
198	0x3dd01357	0.10159939
199	0x3b196a9c	0.0023409491
200	0xbd2d2785	-0.042274017
201	0x3d953c5e	0.07286905
202	0xbdb7eab8	-0.08980316
203	0x3c1dbd29	0.009627619
204	0x3dbf9318	0.09354228
205	0xbd844131	-0.06457747
206	0x3d275cf3	0.040860128
207	0x3d15b02f	0.036544975
208	0x3be5b2ba	0.0070098313
209	0xbcadbcca	-0.021208186
210	0xb9df4bf8	-0.00042590476
211	0xbd4d0998	-0.050057977
212	0xbbaf5fca	-0.005351995
213	0x3dd71666	0.10502319
214	0x3db21280	0.08694935
215	0x3ced407a	0.028961409
216	0xbdd9eb9d	-0.10640643
217	0x3d2e7736	0.042594157
218	0xbd916717	-0.07099741
219	0x3dd39238	0.103306234
220	0xbd93faf3	-0.07225599
221	0xbb17f7fb	-0.002318858
222	0xbc23c9f6	-0.009996882
223	0x3c3d6a97	0.0115610575
224	0x3db39df6	0.08770363
225	0x3da13b43	0.078726314
226	0x3d9039d1	0.070422776
227	0x3dc11af9	0.09428973
228	0x3ddbd41a	0.107338145
229	0xbd17f2bf	-0.037096735
230	0xbd6b2ec5	-0.05741765
231	0x3dcfd72c	0.10148463
232	0xbb92eb2d	-0.0044836015
233	0x3b5169b9	0.0031953885
234	0xbce50ac0	-0.027959228
235	0xbd952e48	-0.07284218
236	0x3de18067	0.11010819
237	0x3dc1313c	0.09433219
238	0x3e013657	0.12618385
239	0x3e206c84	0.15666395
240	0x3e0b4d01	0.13603593
241	0x3dc38830	0.0954746
242	0x3af9a9a8	0.0019047754
243	0xbdbda6a5	-0.092603005
244	0xbd8ce292	-0.06879152
245	0xbdfb17ee	-0.122604236
246	0xbe06b680	-0.13155556
247	0xbd0ea56e	-0.034825735
248	0xbda3cd69	-0.07998163
249	0xbe3464c6	-0.17616567
250	0xbdb1d9c9	-0.08684117
251	0xbdf30895	-0.11866871
252	0xbdd70ef6	-0.105009004
253	0x3c2419e9	0.010015943
254	0x3e36b31e	0.17841765
255	0xbbaa2849	-0.0051927906

shared.2.bias f4 [64]
0	0x3dc2b614	0.09507385
1	0xbe04afc7	-0.12957679
2	0xbd686b37	-0.056742873
3	0xbcd355cc	-0.025797747
4	0xbe0f3fbe	-0.1398916
5	0xbdecdc06	-0.11565404
6	0xbda3aa91	-0.07991517
7	0x3db2b44e	0.08725797
8	0x3c692079	0.0142289335
9	0xbc8fa817	-0.017536206
10	0x3b959691	0.004565068
11	0xbdf8061c	-0.1211054
12	0xbe15ce24	-0.14629418
13	0xbdf660f9	-0.12030215
14	0xbe03e6c6	-0.12881002
15	0x3d9f8325	0.07788686
16	0xbd329da1	-0.043607358
17	0xbc3f2298	-0.011665963
18	0xbdad641e	-0.084663615
19	0x3d088609	0.03333095
20	0xbcea1d95	-0.028578559
21	0xbda0b053	-0.07846131
22	0x3d8869cd	0.06660805
23	0x3dce50b3	0.10073986
24	0xbdf09e7f	-0.11748981
25	0x3db03f70	0.0860585
26	0x3c182589	0.009286293
27	0xbcb124cd	-0.021623993
28	0x3d63d8f3	0.05562682
29	0xbd3488aa	-0.044075646
30	0x3d938a65	0.07204131
31	0x3dd7fa5b	0.105457984
32	0xbd85a51a	-0.06525631
33	0xbd87026d	-0.065922596
34	0xbe0ef386	-0.13960084
35	0x3d2e88cb	0.042610925
36	0xbdc585ec	-0.09644684
37	0xbde08702	-0.10963251
38	0xbd992f6f	-0.0747975
39	0xbe1ca68f	-0.15297912
40	0xbdf3666d	-0.118847705
41	0x3e00edda	0.12590733
42	0x3d3c2272	0.045931287
43	0x3e09d4ee	0.13460132
44	0xbd1963b0	-0.037448585
45	0xbcad0d22	-0.021124426
46	0xbd3e8432	-0.04651279
47	0xbc6a65f5	-0.014306535
48	0xbdddd6a7	-0.10831957
49	0x3cb4f19b	0.022087863
50	0xbda321f0	-0.079654574
51	0x3d3c97a2	0.046043046
52	0x3dd057c7	0.10172992
53	0x3cc891d4	0.024483599
54	0x3da230da	0.07919474
55	0xbdaa4e2d	-0.08315692
56	0xbc5de5ad	-0.0135435285
57	0xbddc3581	-0.107523926
58	0xbbc17ba1	-0.0059046303
59	0xbd2c1aca	-0.042017736
60	0xbd6f9413	-0.058490824
61	0xbdfd8a79	-0.12379927
62	0xbd2e651a	-0.042576887
63	0x3c88690b	0.01665165

actor.0.weight f4 [64, 64]
0	0x3c73ade8	0.014873005
1	0xbe06e4cf	-0.13173221
2	0x3dfee770	0.12446487
3	0x3dcd0105	0.1000996
4	0xbde0f5cc	-0.10984382
5	0x394133e3	0.00018425244
6	0x3df74802	0.12074281
7	0xbdf7083a	-0.12062116
8	0xbe1e90df	-0.15484951
9	0x3de9c0b1	0.11413706
10	0x3d0cfc6b	0.034420412
11	0xbbfe2594	-0.0077559445
12	0xbdae9f99	-0.085265346
13	0xbcad0130	-0.02111873
14	0x3da040fd	0.078248955
15	0xbd2f2fcf	-0.042770203
16	0xbd82bd7c	-0.063837975
17	0xbdb838cb	-0.089952074
18	0xbcabee7a	-0.020987738
19	0x3e04940f	0.12947105
20	0xbe0caf7d	-0.13738818
21	0xbc2c9bc0	-0.010535181
22	0x3d30f5a8	0.043203026
23	0xbc00f912	-0.007871883
24	0xbdb33c96	-0.0875179
25	0xbc21c43c	-0.009873446
26	0xbcb16aef	-0.021657435
27	0xbcfcfed3	-0.030883228
28	0xbd94d95b	-0.0726802
29	0x3d17ce04	0.037061706
30	0xbcda5b5d	-0.026654894
31	0x3cbc45d3	0.022982514
32	0x3d2bff65	0.04199161
33	0x3d2f5a5f	0.042810794
34	0xbdf93be0	-0.121696234
35	0xbdeb535b	-0.11490508
36	0xbda9e506	-0.08295636
37	0xbdfbafba	-0.122893766
38	0xbd38af2d	-0.045088936
39	0x3d62753a	0.055287577
40	0xbe009921	-0.12558414
41	0xbd05048a	-0.032475032
42	0xbdc12125	-0.0943015
43	0xbcb5949b	-0.022165587
44	0x3d392846	0.045204423
45	0xbd7ca9df	-0.06168544
46	0xbd014df1	-0.03156847
47	0x3d2269ac	0.039651558
48	0xbd521ced	-0.051297117
49	0x3d51c94d	0.051217366
50	0xbc671441	-0.01410395
51	0x3e1f3f7b	0.1555156
52	0xbc485e82	-0.012229564
53	0x3dc6790c	0.096910566
54	0x3e0564e2	0.13026765
55	0x3cef5763	0.029216474
56	0x3d4ab00c	0.049484298
57	0xbdf44d5e	-0.11928819
58	0xbdc22518	-0.09479731
59	0x3d015486	0.03157475
60	0x3da2c79d	0.079482295
61	0x3df076e4	0.117414266
62	0xbce3356d	-0.027735436
63	0xbbf85f05	-0.0075796866
64	0x3dd70e4c	0.10500774
65	0xbc1ba7fa	-0.009500498
66	0x3e1a962e	0.15096352
67	0xbd04dcf6	-0.032437287
68	0xbd8202d3	-0.06348195
69	0xbd0a04aa	-0.033695854
70	0x3d099906	0.0335932
71	0xbd9c8b45	-0.07643751
72	0xbd39b7ee	-0.045341425
73	0x3dbe0310	0.09277928
74	0xbc45aa12	-0.012064474
75	0x3dac7df0	0.08422458
76	0xbd8c5ab5	-0.068532385
77	0xbdc50976	-0.09620945
78	0xbddddbc3	-0.10832932
79	0xbdc5be31	-0.09655417
80	0xbdc3b95f	-0.09556841
81	0x3dbf9e4c	0.093563646
82	0x3c1f6ed4	0.009731013
83	0xbdb90141	-0.09033442
84	0x3e178912	0.14798382
85	0xba681b69	-0.0008854182
86	0x3dcc0886	0.09962563
87	0xbd833805	-0.06407169
88	0x3d8b877d	0.06812952
89	0xbd7472a2	-0.059679635
90	0x3dffdc07	0.12493139
91	0xbda4f8b9	-0.080552526
92	0x3c846de0	0.016165674
93	0xbc8af048	-0.016960278
94	0x3de13658	0.109966934
95	0xbd9c6aab	-0.07637533
96	0xbd94b1dd	-0.07260487
97	0xbcd8eaac	-0.026479088
98	0xbd83108f	-0.06399643
99	0xbd8958d0	-0.06706393
100	0xbc08218b	-0.0083087785
101	0xbc6d03ed	-0.014466268
102	0x3dfb93e6	0.12284069
103	0xbd2dd458	-0.042438835
104	0x3dbf5123	0.093416475
105	0xbd0f2b1e	-0.03495323
106	0xbd0df179	-0.034654114
107	0x3c9bb257	0.019005938
108	0xbcb65390	-0.022256643
109	0x3d0e3358	0.034716934
110	0x3dc81b0a	0.09770782
111	0x3cf77fa3	0.03021223
112	0xbe090a7c	-0.13382906
113	0xbd9ae7e3	-0.0756376
114	0xbcda20a1	-0.026626887
115	0xbdaf2593	-0.085520886
116	0x3ac466f8	0.00149843
117	0x3d8f71e9	0.070041485
118	0x3d938491	0.072030194
119	0xbbce88d0	-0.0063029304
120	0xbd273677	-0.040823426
121	0xbdbdf436	-0.09275095
122	0xbd570e29	-0.05250374
123	0x3ddca325	0.10773305
124	0xbcf468c9	-0.029835122
125	0x3d662695	0.05618914
126	0xbe02a4cd	-0.12758179
127	0xbd72f47c	-0.05931519
128	0x3d366bad	0.04453628
129	0xbde015ca	-0.10941656
130	0x3d4bea5f	0.04978406
131	0xbdfc43e3	-0.12317636
132	0xbda8db6a	-0.08244975
133	0x3dccd3d9	0.10001344
134	0x3e3d6d51	0.18498732
135	0xbd1f65ba	-0.038915373
136	0xbe0b69ec	-0.13614625
137	0xbd3c854d	-0.046025563
138	0x3d470155	0.048585255
139	0xbdfbdf6d	-0.122984745
140	0x3d95f479	0.0732202
141	0xbe039842	-0.1285105
142	0x3db24041	0.08703662
143	0x3cdb6baa	0.026784737
144	0xbd9f0080	-0.07763767
145	0x3df04dcd	0.11733589
146	0x3dba0faa	0.09085019
147	0x3d7e4035	0.06207295
148	0xbe0d6f11	-0.138119
149	0xbc2b7e07	-0.010467059
150	0xbd2fa811	-0.04288489
151	0x3e230f7b	0.15923874
152	0xbdaba779	-0.08381552
153	0xbd0d3738	-0.03447649
154	0xbddd0717	-0.10792368
155	0x3ce78676	0.028262358
156	0x3e565053	0.20929079
157	0x3d36ef74	0.044661954
158	0xbdb3364d	-0.087505914
159	0x3df48c2f	0.119408004
160	0x3d6815f9	0.05666158
161	0x3c3ac5f0	0.011399731
162	0x3c19459f	0.009354978
163	0xbddee81c	-0.10884115
164	0x3cb6c633	0.022311306
165	0x3ce5cb29	0.028050976
166	0xbda489b8	-0.0803408
167	0x3d9b3d3d	0.0758004
168	0x3da59dd4	0.08086744
169	0x3e0dfa0d	0.13864918
170	0xbc67df76	-0.014152398
171	0xbd061b3e	-0.032740824
172	0xbc4795a3	-0.012181672
173	0x3d8429ec	0.064533085
174	0xbd6f107b	-0.058365326
175	0x3ddfa77e	0.109206185
176	0x3dadc9bb	0.08485743
177	0x3d02541f	0.031818505
178	0xbe294367	-0.16529618
179	0x3d94f504	0.072732955
180	0x3e0f2843	0.13980202
181	0xbc933085	-0.017967472
182	0xbc9a9906	-0.018871795
183	0xbd947db5	-0.07250539
184	0x3c63c982	0.013903024
185	0xbde4090f	-0.1113454
186	0x3da77607	0.08176809
187	0x3c961839	0.018322097
188	0xbd07cb7d	-0.033153046
189	0xbd8c05ab	-0.068370186
190	0xbd40a6e5	-0.047034163
191	0x3e0ec3b7	0.13941847
192	0x3d4f0504	0.050541893
193	0x3d36fdfc	0.044675812
194	0xbc0b4cad	-0.008502168
195	0x3d7de6d1	0.0619877
196	0x3e03b8d9	0.12863483
197	0x3c89fda5	0.01684458
198	0xbe0c5571	-0.13704468
199	0x3dc7ce0e	0.09756099
200	0xbcaf8603	-0.021426206
201	0xbd47031f	-0.04858696
202	0xbe38f61e	-0.18062636
203	0x3d3a6387	0.045505073
204	0x3c962ed6	0.01833288
205	0xbd469ede	-0.04849135
206	0x3d7e6413	0.062107157
207	0x3dcba088	0.09942728
208	0xbda8c715	-0.08241097
209	0x3d0c73f2	0.03429026
210	0xbe0351bf	-0.12824152
211	0xbdae40b4	-0.08508435
212	0x3e05818b	0.13037698
213	0xbd193ca5	-0.03741135
214	0x3dfaa1e8	0.122379124
215	0xbda27f12	-0.07934393
216	0x3e1483d2	0.1450341
217	0xbd770641	-0.0603087
218	0x3cb3cf6a	0.021949489
219	0x3d333536	0.043751918
220	0x3aefebf7	0.0018304576
221	0x3da46d32	0.0802864
222	0x3dd7717d	0.10519693
223	0x3c9015ef	0.017588584
224	0xbc9e1d78	-0.019301161
225	0x3d2cc21b	0.0421773
226	0x3dc6e3fb	0.097114526
227	0x3df2043e	0.118172154
228	0xbc4f6377	-0.012657992
229	0xbd366b77	-0.04453608
230	0x3dd5d123	0.1044028
231	0x3d91e7a3	0.07124259
232	0xbdea95c9	-0.114543505
233	0x3ccd2b50	0.025045067
234	0xbdbb150e	-0.09134875
235	0xbdb51a09	-0.088428564
236	0x3ad4e5e5	0.001624283
237	0x3d0d106f	0.0344395
238	0xbc8a8f08	-0.016913906
239	0x3dd4289f	0.1035931
240	0x3dfd3d3c	0.12365195
241	0x3d6fc5dd	0.058538307
242	0xbd6dd597	-0.058065023
243	0xbd690b45	-0.056895513
244	0xbce4a860	-0.027912319
245	0x3da37520	0.07981324
246	0xbd5b8ac6	-0.05359914
247	0x3d70031f	0.058596727
248	0x3d74eb74	0.059794858
249	0xbd744972	-0.059640355
250	0xbdce6f44	-0.10079816
251	0x3e1aa63f	0.1510248
252	0xbbdce72e	-0.006741426
253	0x3e007ec9	0.12548365
254	0xbe192540	-0.14955616
255	0xbdacf4f8	-0.084451616

actor.0.bias f4 [64]
0	0x3cc08d97	0.023505015
1	0xbd9ab293	-0.075535916
2	0x3d4b4cd3	0.049633812
3	0x3ca61832	0.02027521
4	0xbd4d2495	-0.050083715
5	0x3ca28a08	0.019841209
6	0xbda20682	-0.079113975
7	0x3d4365b2	0.047704406
8	0x3d4e3eee	0.050352983
9	0x3ccb221e	0.024796542
10	0x3cb9cd9f	0.022681056
11	0x3de52912	0.11189474
12	0x3c3f1d48	0.011664696
13	0xbdf47368	-0.119360745
14	0x3e030b78	0.12797344
15	0x3db1576d	0.08659253
16	0x3d41ce2d	0.047315765
17	0x3e151fe0	0.1456294
18	0x3d7f9e4d	0.062406827
19	0x3d27de9c	0.04098378
20	0x3d94f7d3	0.07273831
21	0xbdc5d3e8	-0.096595585
22	0xbcdf9a3a	-0.02729522
23	0xbd3e45e8	-0.046453387
24	0x3d9207e0	0.07130408
25	0xbd9bb169	-0.07602198
26	0x3cbc4637	0.0229827
27	0x3d2e71ac	0.042588875
28	0xbd99ad09	-0.07503707
29	0xbc4901b6	-0.012268474
30	0xbd58caf8	-0.05292794
31	0x3d8f7c84	0.07006171
32	0xbe0966db	-0.13418142
33	0xbccee9d5	-0.025257984
34	0x3c0ca77d	0.008584854
35	0x3d77024f	0.060304936
36	0xbde69a82	-0.11259939
37	0x3d54c626	0.05194678
38	0xbd9b380d	-0.0757905
39	0xbb1305ae	-0.0022433805
40	0xbd5f0735	-0.054450233
41	0xbd7f4f6e	-0.06233161
42	0xbc874c3c	-0.016515844
43	0xbc01bb00	-0.007918119
44	0x3dc8e1ca	0.09808691
45	0x3debd648	0.1151548
46	0x3d940059	0.07226629
47	0x3d4f1543	0.050557386
48	0x3d943986	0.07237534
49	0x3d83fb70	0.06444442
50	0xbe17155a	-0.14754239
51	0x3db2428e	0.087041005
52	0x3d4da2a2	0.050203927
53	0xbd4e9fbc	-0.050445303
54	0xbd17c7d1	-0.037055794
55	0x3db0994d	0.0862299
56	0x3d739b29	0.059474144
57	0xbd11bbec	-0.035579607
58	0xbd1ae980	-0.03782034
59	0xbd97ff73	-0.0742177
60	0x3d6d78eb	0.057976644
61	0xbdd073d4	-0.101783425
62	0xbdf0bd82	-0.11754896
63	0xbd2a079e	-0.04151117

actor.2.weight f4 [3, 64]
0	0x3ca11fcf	0.019668488
1	0x3dd115c8	0.102092326
2	0xbd1b9dc0	-0.03799224
3	0x3dc775e4	0.09739283
4	0xbe165a0d	-0.14682789
5	0xbd82f179	-0.063937135
6	0xbdaeb2f9	-0.0853023
7	0xbdf999b6	-0.12187521
8	0xbd862eac	-0.06551871
9	0xbd86230f	-0.06549656
10	0xbd1e0dfa	-0.038587548
11	0xbdd66da1	-0.10470129
12	0x3d57707d	0.05259751
13	0x3d61fe70	0.05517429
14	0x3c411529	0.01178483
15	0x3d0803ad	0.03320663
16	0xbe09f19e	-0.13471076
17	0xbd28978c	-0.04116015
18	0xbd67b128	-0.056565434
19	0xbe25b828	-0.16183531
20	0x3dccfa0b	0.100086294
21	0xbe0859e8	-0.13315547
22	0x3e08e847	0.13369857
23	0x3e1b5a5d	0.1517119
24	0x3cc04908	0.023472324
25	0xbd4657c4	-0.048423544
26	0x3e013c3b	0.12620632
27	0xbde3de13	-0.11126342
28	0x3bba4bc4	0.0056853015
29	0x3d8c1a89	0.06840999
30	0x3dd71c8e	0.10503493
31	0x3c4d572d	0.012532991
32	0xbcd1b0d7	-0.02559702
33	0xbce50653	-0.027957117
34	0xbe202eb4	-0.15642816
35	0x3cee4935	0.029087642
36	0xbe034261	-0.1281829
37	0x3cdd3886	0.027004492
38	0xbd2f7d90	-0.042844355
39	0x3dd7953c	0.10526511
40	0xbdc43daf	-0.09582078
41	0x3da0a8c2	0.07844688
42	0xbc37b21b	-0.011211897
43	0xbd127130	-0.035752475
44	0xbe16f738	-0.14742744
45	0x3e197327	0.14985333
46	0x3aa59078	0.0012631556
47	0xbe073035	-0.13201983
48	0xbd145374	-0.0362124
49	0x3db04e43	0.08608677
50	0xbcc25a57	-0.023724718
51	0x3e1d92eb	0.15388076
52	0x3d81878a	0.0632468
53	0x37e71914	2.7549024e-05
54	0x3e2db3ae	0.16963074
55	0x3df4608c	0.11932477
56	0xbcedf9a0	-0.029049695
57	0x3d08a51f	0.033360597
58	0x3d9d918b	0.07693776
59	0xbd9115f2	-0.07084264
60	0x3dd6fd7a	0.104975656
61	0xbe0f0f4d	-0.1397068
62	0xbda187d6	-0.07887237
63	0x3d168eec	0.036757395
64	0xbe18fe3f	-0.14940737
65	0xbd2d8149	-0.042359624
66	0xbda28b33	-0.079367064
67	0x3d7f8ff5	0.062393147
68	0x3cd34491	0.025789531
69	0xbd79c7fb	-0.06098173
70	0x3e0b755b	0.13618986
71	0xbdaa2968	-0.08308679
72	0x3c772e89	0.015086778
73	0x3da91937	0.082567625
74	0xbde91278	-0.11380476
75	0xbd2871d9	-0.0411242
76	0xbd9f386d	-0.07774434
77	0xbc09668d	-0.008386266
78	0xbda17e4e	-0.07885419
79	0x3de4ad2d	0.11165843
80	0xbd4f358f	-0.050588187
81	0xbdfa872a	-0.12232812
82	0x3d0b9f89	0.03408769
83	0x3cb49020	0.02204138
84	0xbcf45770	-0.02982685
85	0x3d05dbbd	0.032680262
86	0x3df2002e	0.118164405
87	0xbd937f5d	-0.07202027
88	0xbe125ba8	-0.14292777
89	0xbe1913f4	-0.14949018
90	0x3c7aea58	0.015314661
91	0x3da1a98f	0.07893669
92	0x3d19a288	0.037508518
93	0xbe0d9599	-0.13826598
94	0xbe04fcc3	-0.12987046
95	0xbdfbe3f3	-0.12299337
96	0x3df2695e	0.118365034
97	0xbbe1940d	-0.006884104
98	0xbd3857e5	-0.045005698
99	0xbe21b10b	-0.15790193
100	0x3dd0adca	0.10189398
101	0xbd024914	-0.031807974
102	0x3e261e87	0.16222583
103	0xbdbf156f	-0.0933026
104	0xbdc64baf	-0.09682404
105	0xbc69cc5d	-0.014269915
106	0x3de97753	0.113997124
107	0x3dea8128	0.11450416
108	0x3dc7acb9	0.09749741
109	0x3dd1f26d	0.10251317
110	0x3ca4d1b9	0.020119535
111	0xbd9bb68d	-0.07603178
112	0x3de978f4	0.11400023
113	0xbd9f2f96	-0.07772748
114	0x3ded79a1	0.115954645
115	0x3cf2db74	0.029645659
116	0xbdd7983e	-0.10527085
117	0x3c701a5a	0.01465472
118	0xbd009155	-0.0313886
119	0x3d90eff0	0.070770144
120	0x3e057c21	0.13035633
121	0x3d2131e6	0.039354227
122	0xbd7c8677	-0.061651673
123	0x3d85aa25	0.06526593
124	0x3e06f58c	0.13179606
125	0xbd116ee6	-0.03550615
126	0x3e0d0492	0.13771275
127	0x3c5c62e5	0.013451313
128	0x3dc007f1	0.09376515
129	0x3d1d7e60	0.0384506
130	0x3e1a5e46	0.15075025
131	0xbe14d80f	-0.14535545
132	0x3dbbe374	0.091742426
133	0xbe18873b	-0.14895336
134	0xbc60666f	-0.013696297
135	0x3e1e71b0	0.15473056
136	0xbdeb140b	-0.11478432
137	0xbe00091d	-0.12503476
138	0xbd227f92	-0.03967244
139	0x3d421a54	0.04738839
140	0xbc5ba223	-0.013405356
141	0xbe30c8ca	-0.17264095
142	0x3cf03214	0.029320754
143	0xbd16ac84	-0.036785617
144	0xbd3ed723	-0.04659189
145	0x3cabe9c6	0.020985495
146	0x3de2ab24	0.11067799
147	0x3d9dac01	0.07698823
148	0xbdce25fa	-0.10065837
149	0x3de356b0	0.11100519
150	0xbca7085b	-0.020389726
151	0xbd6a7225	-0.057237763
152	0x3e05aeb5	0.13054927
153	0x3ce9775c	0.028499298
154	0x3d042c34	0.032268718
155	0x3dd8de68	0.105892956
156	0xbcc633b0	-0.024194568
157	0x3e0707a6	0.13186511
158	0x3cfb3844	0.030666478
159	0x3dec1c0f	0.11528789
160	0x3c3f733e	0.011685191
161	0x3db784a7	0.08960848
162	0x3db3a91c	0.087724894
163	0xbd54b711	-0.0519324
164	0x3df2d788	0.118575156
165	0x3c4aec1a	0.012385393
166	0x3d1349e4	0.03595914
167	0xbdf56636	-0.11982386
168	0x3c02e62d	0.0079894485
169	0x3ddb7813	0.10716262
170	0xbde9f0e4	-0.11422899
171	0x3bd9abd7	0.0066427994
172	0x3e2eb77a	0.17062178
173	0xbe2c1937	-0.16806494
174	0x3d2a754d	0.041615773
175	0x3d0bbaa7	0.034113552
176	0x3e0ab180	0.13544273
177	0xbd79aee4	-0.060957804
178	0xbe1a5114	-0.15069991
179	0xbdef5753	-0.11686578
180	0x3d661905	0.056176204
181	0xbdf8d05b	-0.12149116
182	0xbe0c026c	-0.13672799
183	0xbcce36ad	-0.025172556
184	0x3cdd2854	0.026996769
185	0xbe077eb7	-0.13231932
186	0xbdcf08bc	-0.10109088
187	0x3d9a24dc	0.075265616
188	0xbe092d26	-0.13396129
189	0xbdcc94ce	-0.0998932
190	0xbd46ff5c	-0.048583373
191	0x3e053001	0.13006593

actor.2.bias f4 [3]
0	0xbcc31fa4	-0.023818798
1	0xbdfa69bf	-0.12227201
2	0xbda2c5f4	-0.07947913

critic.0.weight f4 [64, 64]
0	0xbd1ccf34	-0.03828354
1	0x3dcc655b	0.099802695
2	0x3d150ea6	0.036390923
3	0xbd592348	-0.053012162
4	0xbdcd4850	-0.10023558
5	0xbd9dbb63	-0.07701757
6	0x3cc2668b	0.023730537
7	0x3dd0562d	0.10172687
8	0x3d82716e	0.06369291
9	0xbcabf656	-0.020991486
10	0x3dab62b7	0.08368438
11	0x3c278094	0.0102235265
12	0x3d0735d4	0.03301032
13	0x3d85a153	0.06524911
14	0xbce1598c	-0.02750852
15	0x3d673f93	0.056457113
16	0x3ca55f5b	0.02018707
17	0x3ce6e84e	0.028186943
18	0xbca5bae7	-0.020230724
19	0x3db1ca4d	0.08681164
20	0xbdf0cf5d	-0.117583014
21	0x3dd1d1a8	0.10245067
22	0xbdcf4964	-0.1012142
23	0xbd9606f1	-0.07325543
24	0xbd8a83ad	-0.067633964
25	0xbcba7e7f	-0.022765396
26	0xbcf57d9f	-0.029967127
27	0xbde6579b	-0.11247178
28	0x3da4961d	0.08036444
29	0x3ce696e1	0.028148117
30	0x3def9910	0.11699116
31	0xbdca33cd	-0.098731615
32	0xbddc210e	-0.10748492
33	0x3d36fa60	0.04467237
34	0x3dd6c119	0.10486049
35	0x3d914ce6	0.07094745
36	0x3d106a66	0.03525772
37	0x3d05cfea	0.032668985
38	0x3d3f2443	0.04666544
39	0xbd27d0af	-0.0409705
40	0xbde7deeb	-0.11321815
41	0xbdecce0d	-0.115627386
42	0xbda576ce	-0.08079301
43	0x3caf2570	0.021380156
44	0x3de06cee	0.10958277
45	0x3da47105	0.08029369
46	0xbd96b444	-0.07358602
47	0x3d30229d	0.04300176
48	0x3dea06f8	0.114271104
49	0x3cde9bba	0.027173866
50	0xbc6c743e	-0.014432011
51	0xbdad663a	-0.08466764
52	0xbb46ad14	-0.0030315565
53	0x3dcb82e4	0.09937075
54	0xbd36e7e1	-0.04465473
55	0xbc6fa1c0	-0.014625967
56	0x3d867a16	0.06566255
57	0xbd1df576	-0.038564168
58	0xbd457f52	-0.048217125
59	0x3cce8b7b	0.025212994
60	0x3db15336	0.08658449
61	0x3bd4c1c7	0.0064928266
62	0xbb3abc64	-0.0028493637
63	0xbdc72d7a	-0.09725471
64	0x3db379ea	0.08763488
65	0xbc150e39	-0.009097629
66	0xbd27c5d4	-0.040960148
67	0xbdc9b160	-0.09848285
68	0xbd923106	-0.07138257
69	0xbdb3e032	-0.08782996
70	0x3d0a3af7	0.03374764
71	0x3dbf7304	0.09348109
72	0xbce4dc32	-0.027937029
73	0x3daf2ec0	0.08553839
74	0xbd23d605	-0.039999027
75	0xbd864b74	-0.0655736
76	0xbe09aa4f	-0.13443874
77	0xbdc283c8	-0.094977915
78	0x3db7bd2e	0.0897163
79	0x3d7a2c88	0.061077625
80	0x3ddceeda	0.10787745
81	0x3a80ea31	0.000983542
82	0x3d212005	0.039337177
83	0xbc8bf254	-0.017083324
84	0x3e007346	0.12543973
85	0xbdf44953	-0.11928048
86	0xbd2a5a66	-0.041590117
87	0xbe014183	-0.12622647
88	0xba892773	-0.0010464027
89	0xbda9e054	-0.0829474
90	0xbd882eae	-0.066495284
91	0x3c7fa61a	0.015603567
92	0x3de87dfa	0.11352153
93	0x3dd2610e	0.10272418
94	0x3db7530f	0.08951389
95	0xbc8ecbdd	-0.017431194
96	0x3c1728bb	0.0092260195
97	0xbe070361	-0.13184883
98	0x3d9005d4	0.070323616
99	0x3d478e28	0.048719555
100	0x3df90280	0.1215868
101	0xbe0c4935	-0.13699801
102	0xbc3520ce	-0.0110551845
103	0xbdbf6aab	-0.09346517
104	0xbde33596	-0.11094205
105	0xbd6fd8c1	-0.058556322
106	0x3d20c14a	0.039246835
107	0x3dbfe7b2	0.09370364
108	0x3d81f017	0.06344622
109	0xbd1c8e67	-0.038221743
110	0x3d339a13	0.04384811
111	0x3de963b5	0.11395971
112	0xba9deb8d	-0.0012048349
113	0xbd91cc94	-0.07119098
114	0xbde54d26	-0.111963555
115	0x3de456fb	0.11149403
116	0xbd1095dc	-0.035299167
117	0xbdd6b4bd	-0.10483692
118	0x3dafcd84	0.08584121
119	0x3c89b500	0.01680994
120	0xbd7127bc	-0.058875784
121	0xbe0b6169	-0.13611378
122	0x3b9b82bd	0.00474581
123	0xbd36a2d3	-0.044588875
124	0xbc6d773a	-0.014493758
125	0xbd0f72e0	-0.035021663
126	0x3dcc2e5b	0.09969779
127	0x3d8961eb	0.067081295
128	0x3dbbbed0	0.09167254
129	0x3d689b19	0.056788538
130	0x3cd7462b	0.026278576
131	0x3de62732	0.11237945
132	0x3bd8794e	0.0066062575
133	0x3d90af18	0.070646465
134	0x3d483cdb	0.04888616
135	0xbdfec51c	-0.124399394
136	0x3dab491c	0.08363554
137	0xbc841a9e	-0.016125973
138	0xbd871536	-0.065958425
139	0x3dac5b26	0.08415823
140	0xbdb215b4	-0.08695546
141	0x3d83d98d	0.06437979
142	0xbdccabdc	-0.09993717
143	0xbc8f76d1	-0.01751271
144	0xbddedb25	-0.10881642
145	0x3da58356	0.08081691
146	0x3d19a1e4	0.037507907
147	0x3dde430f	0.10852634
148	0x3d011a0d	0.031518985
149	0xbd32caba	-0.043650366
150	0x3ca43834	0.020046331
151	0x3dc468a8	0.09590274
152	0xbdb5c856	-0.08876102
153	0xbdbe20d9	-0.09283609
154	0xbd452c68	-0.048138052
155	0xbd90330d	-0.07040987
156	0xbc03ccbf	-0.008044421
157	0x3deae0e7	0.11468678
158	0x3d82d5d2	0.06388439
159	0xbde041ba	-0.10950036
160	0xbd960653	-0.07325425
161	0x3de89135	0.11355821
162	0xbb20bcaf	-0.0024526527
163	0xbd80c676	-0.062878534
164	0x3c10f884	0.008848313
165	0xbc208980	-0.009798408
166	0x3ce949ea	0.028477628
167	0x3c1f0e62	0.009708019
168	0x3da5af04	0.08090022
169	0x3d7191c5	0.058976907
170	0x3d2b551c	0.041829214
171	0x3d095376	0.03352686
172	0xbd087828	-0.033317715
173	0xbdebd324	-0.11514881
174	0xbb9e8871	-0.0048380424
175	0xbdb4e45f	-0.08832621
176	0xbdc6f844	-0.09715322
177	0xbdb3c56b	-0.08777889
178	0xbcc4a153	-0.024002707
179	0xbddd58a0	-0.108079195
180	0x3cdebb52	0.02718893
181	0x3d721919	0.059105966
182	0x3d87f605	0.066387214
183	0xbdf00f43	-0.11721661
184	0x3ddf34e7	0.10898762
185	0x3d38f117	0.045151796
186	0x3de1a339	0.110174604
187	0x3d838892	0.06422533
188	0x3ca2da1d	0.019879395
189	0xbcffc4d8	-0.031221792
190	0x3ddb2318	0.10700053
191	0xbda08e02	-0.07839586
192	0x3dda266b	0.10651859
193	0x3dc95e92	0.09832491
194	0x3d0116ea	0.031515993
195	0xbd2f50a4	-0.042801514
196	0xbde00d13	-0.10939994
197	0xbbe7eac8	-0.0070775487
198	0x3de335dc	0.11094257
199	0x3c2d308a	0.010570655
200	0xbd044291	-0.032290045
201	0xbd664700	-0.056220055
202	0xbbd743b4	-0.00656935
203	0x3d8876be	0.06663273
204	0x3c1666c8	0.009179778
205	0x3c5f46d2	0.013627725
206	0xbdb9f0d9	-0.09079141
207	0x3d2f0596	0.042729937
208	0x3b6650f6	0.0035143471
209	0xbde73e05	-0.11291126
210	0x3dce8f41	0.10085917
211	0x3d9b4192	0.07580866
212	0x3bce0c70	0.0062881038
213	0xbd2781b5	-0.040895183
214	0x3ddd2cbd	0.10799549
215	0x3dec8eaa	0.115506485
216	0x3c357f84	0.011077765
217	0x3e019dbb	0.12657826
218	0x3d9096b6	0.07059996
219	0x3d4e0821	0.05030072
220	0xbca29cda	-0.019850183
221	0xbc091cb9	-0.008368664
222	0x3dadbaf9	0.08482928
223	0xbd38e639	-0.045141432
224	0xbda598b3	-0.08085766
225	0x3d81e2ae	0.06342064
226	0xbd207b52	-0.039180107
227	0x3dcb1440	0.09915972
228	0xbbcd037d	-0.0062565194
229	0xbdb239f8	-0.08702463
230	0x3c38363d	0.0112434
231	0xbcbed67c	-0.023295633
232	0x3c911ff8	0.01771544
233	0xbdaf6466	-0.08564071
234	0xbdd3364b	-0.1031309
235	0x3c5c7308	0.01345516
236	0x3deeabe4	0.11653879
237	0xbd9d42fe	-0.07678793
238	0xbd91f890	-0.07127488
239	0x3bdc4051	0.0067215343
240	0x3db62040	0.0889287
241	0x3d99e567	0.07514458
242	0xbd125dcf	-0.035733994
243	0x3c2fc140	0.010727227
244	0xbdd9002d	-0.10595737
245	0x3ded501a	0.11587544
246	0x3dae76f8	0.08518785
247	0x3cd92dd9	0.02651112
248	0xbe017985	-0.12644012
249	0x3d79848c	0.060917422
250	0xbda2d4e0	-0.07950759
251	0xb9e91c4e	-0.00044462312
252	0x3d83dbf2	0.064384356
253	0x3b492576	0.0030692494
254	0xbd84be58	-0.06481618
255	0x3da642d6	0.08118217

critic.0.bias f4 [64]
0	0xbde02380	-0.10944271
1	0x3da211d9	0.079135604
2	0xbd79e212	-0.061006613
3	0xbdcbe3ee	-0.099555835
4	0x3dc5486b	0.09632953
5	0xbddaf8f2	-0.10692014
6	0xbd1c8b8e	-0.038219027
7	0xbd8770c9	-0.06613309
8	0x3df84a47	0.12123542
9	0xbc977684	-0.01848913
10	0xbd9fc579	-0.07801337
11	0x3dda3efc	0.106565446
12	0x3dd97be4	0.106193334
13	0x3d994506	0.07483868
14	0x3dc4e3cf	0.096137635
15	0xbdcbb917	-0.099474125
16	0xbdf983cb	-0.12183341
17	0x3d4ce4a1	0.050022725
18	0xbd2b013f	-0.041749235
19	0x3d2e59c0	0.04256606
20	0x3df7eeeb	0.12106117
21	0xbc9d7591	-0.0192211
22	0xbd92a201	-0.07159806
23	0x3e04ba1c	0.1296162
24	0xbd9006c7	-0.07032543
25	0xbd9bfe85	-0.07616905
26	0x3de8a5c0	0.11359739
27	0xbc3f4c20	-0.011675864
28	0xbd404c2c	-0.046947643
29	0x3d30ca85	0.043161888
30	0xbd552ed4	-0.052046612
31	0x3c1919af	0.009344502
32	0xbde9dd7e	-0.114191994
33	0xbd34010f	-0.043946322
34	0x3dde3b8f	0.10851204
35	0x3ca2b760	0.01986283
36	0xbc84f550	-0.016230255
37	0x3dad3132	0.08456649
38	0x3d5b1ee9	0.053496275
39	0x3d63fd73	0.05566163
40	0x3d859524	0.06522587
41	0xbd67912a	-0.056534924
42	0xbdb4d3bc	-0.088294476
43	0xbd7eb324	-0.06218256
44	0xbd7dc063	-0.061951052
45	0x3d2e6b9f	0.042583104
46	0x3dc93b4b	0.09825762
47	0x3dd461c6	0.10370211
48	0x3de26ad2	0.110555306
49	0x3cebdbde	0.028791364
50	0x3dcbadff	0.099452965
51	0x3c7f0439	0.015564972
52	0x3d33ddab	0.04391257
53	0xbdc15197	-0.0943939
54	0x3de86f0d	0.11349306
55	0x3d8ae3cc	0.0678173
56	0x3c38e30f	0.011284604
57	0xbd654b8a	-0.055980243
58	0x3c436db6	0.011928013
59	0xbabae375	-0.0014258461
60	0xbdb265d4	-0.087108284
61	0xbd7f3903	-0.06231023
62	0xbd7cbf2d	-0.061705757
63	0x3ca27cee	0.019834962

critic.2.weight f4 [1, 64]
0	0xbd4dbc60	-0.050228477
1	0x3d984fcc	0.07437095
2	0xbd049018	-0.03236398
3	0x3c849f48	0.016189232
4	0x3bb543c3	0.0055317595
5	0xbb30ce82	-0.0026978557
6	0x3c80ab04	0.015706547
7	0x3ac7d4aa	0.0015245874
8	0x3d87b70a	0.06626709
9	0xbc6a660f	-0.014306559
10	0xbd41d8ee	-0.04732602
11	0x3c0f573e	0.0087488275
12	0xbd47100c	-0.048599288
13	0x3c699530	0.0142567605
14	0x3bfa7e77	0.0076444703
15	0x3d0ab4e3	0.033863913
16	0xbcd8a41f	-0.026445447
17	0x3a943204	0.001130641
18	0xbd77f6c9	-0.060538087
19	0xbd37135a	-0.04469619
20	0x3aae76f6	0.00133106
21	0x3d0ad54d	0.033894826
22	0xbc2c228f	-0.010506286
23	0x3dc94233	0.098270796
24	0xbd237f01	-0.039916042
25	0xbbf6711b	-0.0075208074
26	0x3dcb6b36	0.09932558
27	0xbc8d0242	-0.01721299
28	0x3d9cc36c	0.07654461
29	0xbb169e03	-0.0022982366
30	0x3d4d613a	0.05014155
31	0x3b9d354a	0.0047976123
32	0xbd878c24	-0.066185266
33	0xbda27410	-0.079322934
34	0x3cf84eff	0.030311106
35	0x3c1a6410	0.009423271
36	0xbbb8b971	-0.0056373407
37	0x3a78fe3d	0.00094983337
38	0xbcbce5ba	-0.02305876
39	0xbdcbf607	-0.09959035
40	0x3c26b77b	0.010175581
41	0xbdc1eedf	-0.09469389
42	0xbad33731	-0.0016114471
43	0x3d7916ad	0.06081264
44	0x3d7c5e53	0.061613392
45	0x3ce42f8c	0.027854703
46	0x3bfa690c	0.007641917
47	0xbd7d29ed	-0.06180756
48	0x3d140623	0.036138665
49	0x3d9a63ad	0.07538543
50	0x3d5d6237	0.054048743
51	0x3d169fa7	0.03677335
52	0xbdc661c6	-0.096866176
53	0xbd8ef13f	-0.06979608
54	0x3a638ab1	0.00086800294
55	0x3d0b6232	0.034029193
56	0x3d080520	0.033208013
57	0xbb23955e	-0.0024960856
58	0xbc934831	-0.01797876
59	0x3d3000f7	0.04296967
60	0xb89dd1a0	-7.525389e-05
61	0xb9e0e407	-0.00042894503
62	0xbda44acc	-0.08022079
63	0xbccf767a	-0.025325049

exp_avg f4 [64, 4]
0	0xb91b6570	-0.0001481974
1	0xb990cd17	-0.00027618624
2	0x39277d2b	0.0001597299
3	0x3953d1fa	0.0002020075
4	0xb90d60ac	-0.00013482821
5	0xb7e43fc2	-2.7209408e-05
6	0x391d0cf8	0.00014977518
7	0xba38a654	-0.0007043828
8	0xbb0fd60b	-0.0021947648
9	0xbb0f7107	-0.0021887438
10	0x3ac7c8d3	0.0015242345
11	0xbb2038ab	-0.002444784
12	0xb973df6f	-0.00023257521
13	0xb90e2983	-0.0001355764
14	0x38cecd6e	9.86111e-05
15	0xb9d9bf25	-0.0004153188
16	0x396ad651	0.00022395818
17	0x39397fd8	0.000176906
18	0xb9f7f667	-0.00047295095
19	0x3a0ad101	0.0005295426
20	0xba1d7590	-0.0006006593
21	0xba34bd2c	-0.0006894644
22	0x3a557b15	0.0008143646
23	0xba1bd3ef	-0.00059443613
24	0x3a774384	0.0009432363
25	0x3a690835	0.00088894676
26	0xba655edd	-0.00087497925
27	0x3ab28104	0.0013618772
28	0xba2ea71b	-0.0006662474
29	0xb9e9c3aa	-0.00044587004
30	0x3a8c3326	0.0010696396
31	0xba8ccc00	-0.0010741949
32	0xba161e02	-0.00057265174
33	0xba4d6b2c	-0.0007836099
34	0x3a7dc7ae	0.00096809387
35	0xb76e2426	-1.4194322e-05
36	0x3a7fbc0a	0.0009755498
37	0x3a4b9967	0.0007766694
38	0xba9b45f8	-0.0011846414
39	0x3b0b1b92	0.002122615
40	0xbb897c1c	-0.004195703
41	0xbb879939	-0.0041381386
42	0x3bb2e295	0.0054591396
43	0xbba4a497	-0.0050245035
44	0xbb239280	-0.0024959147
45	0xbb24bd93	-0.002513741
46	0x3b55be7e	0.0032614763
47	0xbb33c589	-0.0027430973
48	0xbac0bbae	-0.001470437
49	0xba90913a	-0.0011029609
50	0x3a8b8e97	0.0010647353
51	0xbb315caa	-0.0027063289
52	0x3ac41967	0.0014961184
53	0x3ad3f5a6	0.0016171231
54	0xbafa66f2	-0.0019104166
55	0x3a941cc2	0.0011300074
56	0x39309e59	0.00016843657
57	0x38fe2b9a	0.00012119785
58	0x394087b7	0.00018361105
59	0x39e0c437	0.000428708
60	0xb9b7f79c	-0.00035088963
61	0xb8dd5acf	-0.000105550156
62	0x3a1f3d26	0.00060744805
63	0xba8b064b	-0.0010606734
64	0x385d85d5	5.2815147e-05
65	0xb9215de7	-0.00015389138
66	0xb950f782	-0.0001992863
67	0x3a9bf82a	0.001189952
68	0xbaf9435e	-0.0019017269
69	0xbaeb3f37	-0.0017947917
70	0x3a54d4ac	0.0008118849
71	0xbb1bca03	-0.0023771531
72	0xbaa35806	-0.0012462146
73	0xbab2519d	-0.0013604645
74	0x3b0c93cd	0.00214504
75	0xba6b85a2	-0.00089844514
76	0x3a5e43c4	0.0008478726
77	0x3a576ba1	0.0008217637
78	0xba90d2f0	-0.0011049192
79	0x3a816f72	0.0009875132
80	0x39665217	0.0002196509
81	0x39833d59	0.00025031975
82	0xba183fc5	-0.0005807842
83	0x396bd546	0.00022490797
84	0xb92089eb	-0.00015310168
85	0xb96f2027	-0.00022804794
86	0x39be1586	0.0003625566
87	0x396631b0	0.0002195302
88	0x3b392040	0.0028247982
89	0x3b24158b	0.0025037255
90	0xbb49bafe	-0.0030781622
91	0x3b900a6b	0.004395773
92	0x3a078917	0.0005170269
93	0x3a3e1e79	0.00072524656
94	0xb9913461	-0.0002769558
95	0x399ac111	0.00029517015
96	0x3a238178	0.0006237249
97	0x3a5b1bfb	0.00083583564
98	0xba44a0ad	-0.0007500749
99	0x399e5090	0.00030196132
100	0x3aa49ebe	0.0012559516
101	0x3aafd1d0	0.001341397
102	0xbb026588	-0.0019896943
103	0x3a92f35e	0.0011211445
104	0x39b034d3	0.00033608693
105	0x3a0a04b6	0.0005264984
106	0xb9a60815	-0.0003166801
107	0xb95c31d5	-0.00020999399
108	0xb8dbe5d8	-0.000104855455
109	0x38d0e856	9.961489e-05
110	0xb80cb3e8	-3.3546152e-05
111	0xba86c78c	-0.0010282858
112	0xbaa41045	-0.0012517056
113	0xba871058	-0.0010304553
114	0x3ab6bfd4	0.0013942667
115	0xbb0a90b6	-0.0021143383
116	0xba6fb3af	-0.00091439014
117	0xba558b17	-0.0008146031
118	0x3ac1491c	0.001474652
119	0xbabf67f0	-0.0014603119
120	0x394300e1	0.00018596977
121	0x39d8122a	0.00041212264
122	0xb99524d5	-0.00028446937
123	0xb982a5d3	-0.0002491908
124	0x398f87c1	0.0002737623
125	0x394cf5a1	0.0001954646
126	0x37fa56f4	2.9842813e-05
127	0x3a2dd265	0.00066307775
128	0xba12e33b	-0.0005603318
129	0xba19ac4b	-0.00058621605
130	0x39f0b673	0.00045912302
131	0xb9968640	-0.00028710254
132	0x3b3f439d	0.0029184588
133	0x3b451e21	0.0030077773
134	0xbb7de19a	-0.0038739205
135	0x3b464abb	0.0030256945
136	0xbad131ad	-0.0015960239
137	0xbab7c3cd	-0.0014020145
138	0x3b1106a5	0.0022129205
139	0xbb3222d6	-0.0027181408
140	0xba42daac	-0.00074330973
141	0xba4f994d	-0.0007919267
142	0x3a0c18d6	0.0005344277
143	0xba414d35	-0.00073738705
144	0xba642a5c	-0.0008703822
145	0xba539c2b	-0.0008072282
146	0x3a8ab8f5	0.0010583686
147	0xbaba0cc7	-0.0014194482
148	0xba8b0ee2	-0.0010609294
149	0xba6024c3	-0.00085504
150	0x3acc71e8	0.0015597912
151	0xbac90939	-0.0015337832
152	0xba84972e	-0.0010115856
153	0xba67c2fa	-0.00088410045
154	0x3a40fab6	0.00073615776
155	0xbab2d36d	-0.0013643332
156	0x3acb5dea	0.001551566
157	0x3ae02176	0.0017099816
158	0xbb24b76d	-0.0025133744
159	0x3abb2507	0.0014278003
160	0x39ba5ba6	0.00035544968
161	0x3a230172	0.0006218172
162	0xba24d278	-0.0006287466
163	0x3754d5ad	1.2685935e-05
164	0xbadbf6ac	-0.0016781888
165	0xbaf8f4d6	-0.0018993865
166	0x3b0fc808	0.0021939296
167	0xbaccb102	-0.0015616717
168	0xbadf9d23	-0.001706038
169	0xbaced08b	-0.0015778703
170	0x3ae532ce	0.0017486454
171	0xbb1ff3ec	-0.0024406863
172	0xb9f0abb8	-0.00045904308
173	0xb99bed38	-0.00029740646
174	0x3a2487bf	0.0006276331
175	0xba80bd1c	-0.0009821984
176	0x3b3f8d04	0.002922834
177	0x3b46c334	0.0030328752
178	0xbb4bea66	-0.0031115054
179	0x3b56abd7	0.0032756233
180	0x3b43ba75	0.0029865776
181	0x3b3de2f5	0.0028974388
182	0xbb8028b9	-0.0039111045
183	0x3b7ec1d1	0.0038872848
184	0x3b69a29c	0.0035649901
185	0x3b731551	0.0037091563
186	0xbb9f4810	-0.0048608854
187	0x3b7d4252	0.0038644266
188	0x3a96531a	0.0011468858
189	0x3aa841a7	0.0012836949
190	0xbabaa9fb	-0.0014241332
191	0x3a7f6bfb	0.00097435684
192	0x3b29a713	0.0025886938
193	0x3b33b859	0.0027423112
194	0xbb31073b	-0.0027012366
195	0x3b2bff72	0.0026244787
196	0xb9bf5490	-0.00036493363
197	0xba133197	-0.00056149944
198	0x3a3ae1e4	0.0007128997
199	0x394cdb59	0.0001953667
200	0xba9639e1	-0.0011461341
201	0xba958c9a	-0.00114097
202	0x3a8ce179	0.0010748348
203	0xbaa2ebed	-0.001242993
204	0xba1bc7cd	-0.00059425534
205	0xb9c65d77	-0.0003783514
206	0x3a1b8eb7	0.0005934047
207	0xbaad742a	-0.0013233472
208	0x3a4923e8	0.0007672892
209	0x3a668cb7	0.0008794772
210	0xba498be0	-0.00076883845
211	0x39bb92e9	0.00035776876
212	0xbb2cdb71	-0.0026375914
213	0xbb234369	-0.0024912006
214	0x3b59bbf2	0.0033223596
215	0xbb661ab8	-0.003511114
216	0xb9f7f041	-0.00047290514
217	0xba07524a	-0.00051621033
218	0x39be68f1	0.00036317811
219	0xb9a8b888	-0.00032180944
220	0x3aa773f5	0.0012775647
221	0x3a81fdb0	0.0009917524
222	0xbad38f87	-0.0016140797
223	0x3b25634e	0.0025236192
224	0x3a4affb3	0.00077437906
225	0x3a4cfe42	0.000781987
226	0xba7df1f9	-0.0009687241
227	0x3a59dafd	0.0008310525
228	0xbb8c35d7	-0.004278879
229	0xbb8c7bbd	-0.0042872117
230	0x3badd560	0.0053049773
231	0xbba105dc	-0.0049140286
232	0x39a06f6c	0.00030600594
233	0x392cce55	0.00016480063
234	0xb9833410	-0.00025025057
235	0x3a7a5fd7	0.00095510244
236	0xba93c930	-0.0011275169
237	0xba8a2d3e	-0.0010542048
238	0x3a9e91e7	0.0012097926
239	0xbad29109	-0.0016064952
240	0x39202948	0.00015274168
241	0xb83f9bb5	-4.5682962e-05
242	0xb929f73d	-0.000162092
243	0x3a8c5463	0.0010706302
244	0xba8fb718	-0.00109646
245	0xba99e538	-0.0011741286
246	0x3ad25b16	0.0016048874
247	0xba739fb4	-0.0009293512
248	0x3b52033d	0.0032045387
249	0x3b4d5b19	0.0031334816
250	0xbb85d410	-0.0040841177
251	0x3b825801	0.003977776
252	0x3a83d9cf	0.0010059419
253	0x3a99a8b9	0.0011723257
254	0xbabadd29	-0.0014256585
255	0x3a3a8d6f	0.0007116412
